Classes: 12
Model:
____________________________________________________________________________________________________
Layer (type)                     Output Shape          Param #     Connected to                     
====================================================================================================
convolution2d_1 (Convolution2D)  (None, 64, 254, 254)  640         convolution2d_input_1[0][0]      
____________________________________________________________________________________________________
convolution2d_2 (Convolution2D)  (None, 62, 252, 64)   146368      convolution2d_1[0][0]            
____________________________________________________________________________________________________
maxpooling2d_1 (MaxPooling2D)    (None, 31, 126, 64)   0           convolution2d_2[0][0]            
____________________________________________________________________________________________________
dropout_1 (Dropout)              (None, 31, 126, 64)   0           maxpooling2d_1[0][0]             
____________________________________________________________________________________________________
convolution2d_3 (Convolution2D)  (None, 29, 124, 64)   36928       dropout_1[0][0]                  
____________________________________________________________________________________________________
convolution2d_4 (Convolution2D)  (None, 27, 122, 64)   36928       convolution2d_3[0][0]            
____________________________________________________________________________________________________
maxpooling2d_2 (MaxPooling2D)    (None, 13, 61, 64)    0           convolution2d_4[0][0]            
____________________________________________________________________________________________________
dropout_2 (Dropout)              (None, 13, 61, 64)    0           maxpooling2d_2[0][0]             
____________________________________________________________________________________________________
flatten_1 (Flatten)              (None, 50752)         0           dropout_2[0][0]                  
____________________________________________________________________________________________________
dense_1 (Dense)                  (None, 128)           6496384     flatten_1[0][0]                  
____________________________________________________________________________________________________
dropout_3 (Dropout)              (None, 128)           0           dense_1[0][0]                    
____________________________________________________________________________________________________
dense_2 (Dense)                  (None, 12)            1548        dropout_3[0][0]                  
====================================================================================================
Total params: 6,718,796
Trainable params: 6,718,796
Non-trainable params: 0
____________________________________________________________________________________________________
Obtained the score: [[0.96009995494665457, 0.65506204053992123], [0.87187904089984325, 0.66584159876450455]]
…
