Classes: 2
Model:
____________________________________________________________________________________________________
Layer (type)                     Output Shape          Param #     Connected to                     
====================================================================================================
convolution2d_13 (Convolution2D) (None, 64, 254, 254)  640         convolution2d_input_4[0][0]      
____________________________________________________________________________________________________
convolution2d_14 (Convolution2D) (None, 62, 252, 64)   146368      convolution2d_13[0][0]           
____________________________________________________________________________________________________
maxpooling2d_7 (MaxPooling2D)    (None, 31, 126, 64)   0           convolution2d_14[0][0]           
____________________________________________________________________________________________________
dropout_10 (Dropout)             (None, 31, 126, 64)   0           maxpooling2d_7[0][0]             
____________________________________________________________________________________________________
convolution2d_15 (Convolution2D) (None, 29, 124, 64)   36928       dropout_10[0][0]                 
____________________________________________________________________________________________________
convolution2d_16 (Convolution2D) (None, 27, 122, 64)   36928       convolution2d_15[0][0]           
____________________________________________________________________________________________________
maxpooling2d_8 (MaxPooling2D)    (None, 13, 61, 64)    0           convolution2d_16[0][0]           
____________________________________________________________________________________________________
dropout_11 (Dropout)             (None, 13, 61, 64)    0           maxpooling2d_8[0][0]             
____________________________________________________________________________________________________
flatten_4 (Flatten)              (None, 50752)         0           dropout_11[0][0]                 
____________________________________________________________________________________________________
dense_7 (Dense)                  (None, 128)           6496384     flatten_4[0][0]                  
____________________________________________________________________________________________________
dropout_12 (Dropout)             (None, 128)           0           dense_7[0][0]                    
____________________________________________________________________________________________________
dense_8 (Dense)                  (None, 2)             258         dropout_12[0][0]                 
====================================================================================================
Total params: 6,717,506
Trainable params: 6,717,506
Non-trainable params: 0
____________________________________________________________________________________________________
Obtained the score: [[0.62327873706817627, 0.5], [0.60822147130966187, 0.5], [0.58287501335144043, 1.0], [0.58163094520568848, 0.5]]
…
