Model:
____________________________________________________________________________________________________
Layer (type)                     Output Shape          Param #     Connected to                     
====================================================================================================
convolution2d_1 (Convolution2D)  (None, 254, 254, 64)  1792        convolution2d_input_1[0][0]      
____________________________________________________________________________________________________
convolution2d_2 (Convolution2D)  (None, 252, 252, 64)  36928       convolution2d_1[0][0]            
____________________________________________________________________________________________________
maxpooling2d_1 (MaxPooling2D)    (None, 126, 126, 64)  0           convolution2d_2[0][0]            
____________________________________________________________________________________________________
dropout_1 (Dropout)              (None, 126, 126, 64)  0           maxpooling2d_1[0][0]             
____________________________________________________________________________________________________
convolution2d_3 (Convolution2D)  (None, 124, 124, 64)  36928       dropout_1[0][0]                  
____________________________________________________________________________________________________
convolution2d_4 (Convolution2D)  (None, 122, 122, 64)  36928       convolution2d_3[0][0]            
____________________________________________________________________________________________________
maxpooling2d_2 (MaxPooling2D)    (None, 61, 61, 64)    0           convolution2d_4[0][0]            
____________________________________________________________________________________________________
dropout_2 (Dropout)              (None, 61, 61, 64)    0           maxpooling2d_2[0][0]             
____________________________________________________________________________________________________
flatten_1 (Flatten)              (None, 238144)        0           dropout_2[0][0]                  
____________________________________________________________________________________________________
dense_1 (Dense)                  (None, 128)           30482560    flatten_1[0][0]                  
____________________________________________________________________________________________________
dropout_3 (Dropout)              (None, 128)           0           dense_1[0][0]                    
____________________________________________________________________________________________________
dense_2 (Dense)                  (None, 12)            1548        dropout_3[0][0]                  
====================================================================================================
Total params: 30,596,684
Trainable params: 30,596,684
Non-trainable params: 0
____________________________________________________________________________________________________
Obtained the score: [[0.11236139523470791, 0.96761969870384335]]
Training started at: Tue Mar 28 15:59:35 2017
…
