_________________________________________________________________
Layer (type)                 Output Shape              Param #   
=================================================================
conv2d_1 (Conv2D)            (None, 254, 254, 64)      1792      
_________________________________________________________________
conv2d_2 (Conv2D)            (None, 252, 252, 32)      18464     
_________________________________________________________________
max_pooling2d_1 (MaxPooling2 (None, 126, 126, 32)      0         
_________________________________________________________________
dropout_1 (Dropout)          (None, 126, 126, 32)      0         
_________________________________________________________________
conv2d_3 (Conv2D)            (None, 124, 124, 32)      9248      
_________________________________________________________________
max_pooling2d_2 (MaxPooling2 (None, 62, 62, 32)        0         
_________________________________________________________________
conv2d_4 (Conv2D)            (None, 60, 60, 32)        9248      
_________________________________________________________________
max_pooling2d_3 (MaxPooling2 (None, 30, 30, 32)        0         
_________________________________________________________________
dropout_2 (Dropout)          (None, 30, 30, 32)        0         
_________________________________________________________________
flatten_1 (Flatten)          (None, 28800)             0         
_________________________________________________________________
dense_1 (Dense)              (None, 128)               3686528   
_________________________________________________________________
dropout_3 (Dropout)          (None, 128)               0         
_________________________________________________________________
dense_2 (Dense)              (None, 8)                 1032      
=================================================================
Total params: 3,726,312
Trainable params: 3,726,312
Non-trainable params: 0
_________________________________________________________________

Obtained the score: [[0.081772377554763756, 0.97405526870667292]] (loss, accuracy)
Training started at: Tue Apr 25 21:56:15 2017
Training ended at: Tue Apr 25 22:20:05 2017
Classes: 8
Nb_epoch: 10
…
