Model:
_________________________________________________________________
Layer (type)                 Output Shape              Param #   
=================================================================
conv2d_1 (Conv2D)            (None, 254, 254, 64)      1792      
_________________________________________________________________
conv2d_2 (Conv2D)            (None, 252, 252, 32)      18464     
_________________________________________________________________
max_pooling2d_1 (MaxPooling2 (None, 126, 126, 32)      0         
_________________________________________________________________
dropout_1 (Dropout)          (None, 126, 126, 32)      0         
_________________________________________________________________
flatten_1 (Flatten)          (None, 508032)            0         
_________________________________________________________________
dense_1 (Dense)              (None, 128)               65028224  
_________________________________________________________________
dropout_2 (Dropout)          (None, 128)               0         
_________________________________________________________________
dense_2 (Dense)              (None, 2)                 258       
=================================================================
Total params: 65,048,738
Trainable params: 65,048,738
Non-trainable params: 0
_________________________________________________________________
Obtained the score: [[0.10751926289579739, 0.94888178875651985]]
Training started at: Wed Apr 19 15:52:26 2017
Training ended at: Wed Apr 19 15:56:06 2017
Classes: 2
Nb_epoch: 10
