Discovering dataset...
10 classes found.
 9446 images found.
Shuffling order...
Ready for loading!
 7084 for training and 2361 for testing
_________________________________________________________________
Layer (type)                 Output Shape              Param #   
=================================================================
Conv1 (Conv2D)               (None, 254, 254, 64)      1792      
_________________________________________________________________
Conv2 (Conv2D)               (None, 252, 252, 32)      18464     
_________________________________________________________________
max_pooling2d_1 (MaxPooling2 (None, 126, 126, 32)      0         
_________________________________________________________________
dropout_1 (Dropout)          (None, 126, 126, 32)      0         
_________________________________________________________________
Conv3 (Conv2D)               (None, 124, 124, 32)      9248      
_________________________________________________________________
max_pooling2d_2 (MaxPooling2 (None, 62, 62, 32)        0         
_________________________________________________________________
Conv4 (Conv2D)               (None, 60, 60, 32)        9248      
_________________________________________________________________
max_pooling2d_3 (MaxPooling2 (None, 30, 30, 32)        0         
_________________________________________________________________
dropout_2 (Dropout)          (None, 30, 30, 32)        0         
_________________________________________________________________
GAP (GlobalAveragePooling2D) (None, 32)                0         
_________________________________________________________________
W (Dense)                    (None, 10)                330       
=================================================================
Total params: 39,082
Trainable params: 39,082
Non-trainable params: 0
_________________________________________________________________
epoch 0
Loaded all imgs for training. Next call will load test data...
Loading completed!
Starting...
Epoch 1/1
  10/7084 [..............................] - ETA: 1580s - loss: 2.2979 - acc:
…
